…
2025-12-10 20:41:33,566 - INFO -   Class 3 (Bullish Normal): 36 samples, weight: 0.5261
2025-12-10 20:41:33,567 - INFO -   Class 4 (Bullish Pennant): 20 samples, weight: 0.9471
2025-12-10 20:41:33,567 - INFO -   Class 5 (Bullish Wedge): 13 samples, weight: 1.4570
2025-12-10 20:41:33,632 - INFO - 
================================================================================
2025-12-10 20:41:33,633 - INFO - MODEL ARCHITECTURE
2025-12-10 20:41:33,634 - INFO - ================================================================================
2025-12-10 20:41:33,635 - INFO - FlagPatternClassifier(
  (conv): Sequential(
    (0): Conv1d(8, 64, kernel_size=(3,), stride=(1,), padding=(1,))
    (1): BatchNorm1d(64, eps=1e-05, momentum=0.1, affine=True, track_running_stats=True)
    (2): ReLU()
    (3): Dropout(p=0.1, inplace=False)
    (4): Conv1d(64, 64, kernel_size=(3,), stride=(1,), padding=(1,))
    (5): BatchNorm1d(64, eps=1e-05, momentum=0.1, affine=True, track_running_stats=True)
    (6): ReLU()
    (7): Dropout(p=0.1, inplace=False)
    (8): Conv1d(64, 128, kernel_size=(3,), stride=(1,), padding=(1,))
    (9): BatchNorm1d(128, eps=1e-05, momentum=0.1, affine=True, track_running_stats=True)
    (10): ReLU()
    (11): Dropout(p=0.1, inplace=False)
    (12): Conv1d(128, 128, kernel_size=(3,), stride=(1,), padding=(1,))
    (13): BatchNorm1d(128, eps=1e-05, momentum=0.1, affine=True, track_running_stats=True)
    (14): ReLU()
  )
  (pool): AdaptiveAvgPool1d(output_size=1)
  (fc): Sequential(
    (0): Linear(in_features=128, out_features=64, bias=True)
    (1): ReLU()
    (2): Dropout(p=0.3, inplace=False)
    (3): Linear(in_features=64, out_features=32, bias=True)
    (4): ReLU()
    (5): Linear(in_features=32, out_features=6, bias=True)
  )
  (criterion): CrossEntropyLoss()
)
2025-12-10 20:41:33,636 - INFO - 
Total parameters: 99,238
2025-12-10 20:41:33,636 - INFO - Trainable parameters: 99,238
2025-12-10 20:41:33,637 - INFO - Non-trainable parameters: 0
2025-12-10 20:41:33,712 - INFO - 
================================================================================
2025-12-10 20:41:33,713 - INFO - CONFIGURATION - Training Hyperparameters
…
