…
2025-12-11 14:41:23,738 - INFO -   Class 0 (Bearish Normal): 24 samples, weight: 0.7892
2025-12-11 14:41:23,738 - INFO -   Class 1 (Bearish Pennant): 23 samples, weight: 0.8235
2025-12-11 14:41:23,738 - INFO -   Class 2 (Bearish Wedge): 13 samples, weight: 1.4570
2025-12-11 14:41:23,738 - INFO -   Class 3 (Bullish Normal): 36 samples, weight: 0.5261
2025-12-11 14:41:23,738 - INFO -   Class 4 (Bullish Pennant): 20 samples, weight: 0.9471
2025-12-11 14:41:23,738 - INFO -   Class 5 (Bullish Wedge): 13 samples, weight: 1.4570
2025-12-11 14:41:23,740 - INFO - [MODEL ARCHITECTURE]
2025-12-11 14:41:23,740 - INFO - FlagPatternClassifier(
  (conv): Sequential(
    (0): Conv1d(8, 64, kernel_size=(3,), stride=(1,), padding=(1,))
    (1): BatchNorm1d(64, eps=1e-05, momentum=0.1, affine=True, track_running_stats=True)
    (2): ReLU()
    (3): Dropout(p=0.1, inplace=False)
    (4): Conv1d(64, 64, kernel_size=(3,), stride=(1,), padding=(1,))
    (5): BatchNorm1d(64, eps=1e-05, momentum=0.1, affine=True, track_running_stats=True)
    (6): ReLU()
    (7): Dropout(p=0.1, inplace=False)
    (8): Conv1d(64, 128, kernel_size=(3,), stride=(1,), padding=(1,))
    (9): BatchNorm1d(128, eps=1e-05, momentum=0.1, affine=True, track_running_stats=True)
    (10): ReLU()
    (11): Dropout(p=0.1, inplace=False)
    (12): Conv1d(128, 128, kernel_size=(3,), stride=(1,), padding=(1,))
    (13): BatchNorm1d(128, eps=1e-05, momentum=0.1, affine=True, track_running_stats=True)
    (14): ReLU()
  )
  (pool): AdaptiveAvgPool1d(output_size=1)
  (fc): Sequential(
    (0): Linear(in_features=128, out_features=64, bias=True)
    (1): ReLU()
    (2): Dropout(p=0.3, inplace=False)
    (3): Linear(in_features=64, out_features=32, bias=True)
    (4): ReLU()
    (5): Linear(in_features=32, out_features=6, bias=True)
  )
  (criterion): CrossEntropyLoss()
)
2025-12-11 14:41:23,740 - INFO - Total parameters: 99,238
2025-12-11 14:41:23,740 - INFO - Trainable parameters: 99,238
2025-12-11 14:41:23,740 - INFO - Non-trainable parameters: 0
2025-12-11 14:41:23,748 - INFO - [CONFIGURATION - Training Hyperparameters]
2025-12-11 14:41:23,748 - INFO - Maximum epochs: 50
2025-12-11 14:41:23,748 - INFO - Batch size: 12
…
2025-12-13 08:41:01,886 - INFO -   Class 3 (Bullish Normal): 48 samples, weight: 0.5840
2025-12-13 08:41:01,887 - INFO -   Class 4 (Bullish Pennant): 23 samples, weight: 1.2188
2025-12-13 08:41:01,888 - INFO -   Class 5 (Bullish Wedge): 23 samples, weight: 1.2188
2025-12-13 08:41:01,951 - INFO - 
================================================================================
2025-12-13 08:41:01,952 - INFO - MODEL ARCHITECTURE
2025-12-13 08:41:01,953 - INFO - ================================================================================
2025-12-13 08:41:01,954 - INFO - FlagPatternClassifier(
  (conv1): Sequential(
    (0): Conv1d(8, 32, kernel_size=(3,), stride=(1,), padding=(1,))
    (1): BatchNorm1d(32, eps=1e-05, momentum=0.1, affine=True, track_running_stats=True)
    (2): ReLU()
    (3): Dropout(p=0.1, inplace=False)
    (4): MaxPool1d(kernel_size=2, stride=2, padding=0, dilation=1, ceil_mode=False)
  )
  (conv2): Sequential(
    (0): Conv1d(32, 64, kernel_size=(3,), stride=(1,), padding=(1,))
    (1): BatchNorm1d(64, eps=1e-05, momentum=0.1, affine=True, track_running_stats=True)
    (2): ReLU()
    (3): Dropout(p=0.1, inplace=False)
    (4): MaxPool1d(kernel_size=2, stride=2, padding=0, dilation=1, ceil_mode=False)
  )
  (conv3): Sequential(
    (0): Conv1d(64, 128, kernel_size=(3,), stride=(1,), padding=(1,))
    (1): BatchNorm1d(128, eps=1e-05, momentum=0.1, affine=True, track_running_stats=True)
    (2): ReLU()
    (3): Dropout(p=0.1, inplace=False)
    (4): MaxPool1d(kernel_size=2, stride=2, padding=0, dilation=1, ceil_mode=False)
  )
  (pool): AdaptiveAvgPool1d(output_size=1)
  (fc): Sequential(
    (0): Linear(in_features=128, out_features=64, bias=True)
    (1): ReLU()
    (2): Dropout(p=0.3, inplace=False)
    (3): Linear(in_features=64, out_features=32, bias=True)
    (4): ReLU()
    (5): Linear(in_features=32, out_features=6, bias=True)
  )
  (criterion): CrossEntropyLoss()
)
2025-12-13 08:41:01,955 - INFO - 
Total parameters: 42,694
2025-12-13 08:41:01,956 - INFO - Trainable parameters: 42,694
2025-12-13 08:41:01,956 - INFO - Non-trainable parameters: 0
2025-12-13 08:41:02,028 - INFO - 
================================================================================
2025-12-13 08:41:02,029 - INFO - CONFIGURATION - Training Hyperparameters
…
