…
2025-12-10 23:00:17,421 - INFO -   Class 0 (Bearish Normal): 24 samples, weight: 0.7892
2025-12-10 23:00:17,422 - INFO -   Class 1 (Bearish Pennant): 23 samples, weight: 0.8235
2025-12-10 23:00:17,422 - INFO -   Class 2 (Bearish Wedge): 13 samples, weight: 1.4570
2025-12-10 23:00:17,422 - INFO -   Class 3 (Bullish Normal): 36 samples, weight: 0.5261
2025-12-10 23:00:17,422 - INFO -   Class 4 (Bullish Pennant): 20 samples, weight: 0.9471
2025-12-10 23:00:17,422 - INFO -   Class 5 (Bullish Wedge): 13 samples, weight: 1.4570
2025-12-10 23:00:17,424 - INFO - [MODEL ARCHITECTURE]
2025-12-10 23:00:17,424 - INFO - FlagPatternClassifier(
  (conv): Sequential(
    (0): Conv1d(8, 64, kernel_size=(3,), stride=(1,), padding=(1,))
    (1): BatchNorm1d(64, eps=1e-05, momentum=0.1, affine=True, track_running_stats=True)
    (2): ReLU()
    (3): Dropout(p=0.1, inplace=False)
    (4): Conv1d(64, 64, kernel_size=(3,), stride=(1,), padding=(1,))
    (5): BatchNorm1d(64, eps=1e-05, momentum=0.1, affine=True, track_running_stats=True)
    (6): ReLU()
    (7): Dropout(p=0.1, inplace=False)
    (8): Conv1d(64, 128, kernel_size=(3,), stride=(1,), padding=(1,))
    (9): BatchNorm1d(128, eps=1e-05, momentum=0.1, affine=True, track_running_stats=True)
    (10): ReLU()
    (11): Dropout(p=0.1, inplace=False)
    (12): Conv1d(128, 128, kernel_size=(3,), stride=(1,), padding=(1,))
    (13): BatchNorm1d(128, eps=1e-05, momentum=0.1, affine=True, track_running_stats=True)
    (14): ReLU()
  )
  (pool): AdaptiveAvgPool1d(output_size=1)
  (fc): Sequential(
    (0): Linear(in_features=128, out_features=64, bias=True)
    (1): ReLU()
    (2): Dropout(p=0.3, inplace=False)
    (3): Linear(in_features=64, out_features=32, bias=True)
    (4): ReLU()
    (5): Linear(in_features=32, out_features=6, bias=True)
  )
  (criterion): CrossEntropyLoss()
)
2025-12-10 23:00:17,425 - INFO - Total parameters: 99,238
2025-12-10 23:00:17,425 - INFO - Trainable parameters: 99,238
2025-12-10 23:00:17,425 - INFO - Non-trainable parameters: 0
2025-12-10 23:00:17,432 - INFO - [CONFIGURATION - Training Hyperparameters]
2025-12-10 23:00:17,432 - INFO - Maximum epochs: 50
2025-12-10 23:00:17,433 - INFO - Batch size: 12
…
